checkpoints/fruit_fastest2.tflite (tflite, 609296 bytes, 85 tensors)

functional_1/conv2d/Conv2D i1 [8, 3, 3, 3]
00000000: 2bf2 5433 0932 faaa ef5f 2940 7f46 4a3e
00000010: fe1e 0ec8 ed5c 2eef 34f9 f132 352f 1d49
00000020: 391a 2f3c 1421 13fc 0c05 eaf0 f4fa fc12
00000030: a5b0 d199 81e0 24c2 ec63 9fb6 50a0 ad54
00000040: f103 7fb4 ae79 adaa 3606 165e e7f0 5bd4
00000050: e71a 1f0b 0dff 1919 13de ec15 7f08 0c7e
00000060: eff9 18e5 052b d3fa 3707 15eb e507 f3b5
00000070: ebf7 0313 f0bc e5f3 81dd fbc6 f0fc 00f4
00000080: cab7 e6df ddf9 e1cc 0ad2 acf7 fcf4 3502
00000090: ade0 d981 bcf7 c7ff 0ee9 15d7 b5dc ece5
000000a0: 0aec da1e 34ab 0b42 dd09 1ed0 1a3b 8108
000000b0: 43ae ff23 fc0f 22c0 0525 cf00 0ed1 04b5
000000c0: e8f2 9c02 18a9 bae7 aa32 1ba7 5348 b0f5
000000d0: 21b8 593f a57f 768a
43 -14 84 51 9 50 -6 -86
-17 95 41 64 127 70 74 62
-2 30 14 -56 -19 92 46 -17
52 -7 -15 50 53 47 29 73
57 26 47 60 20 33 19 -4
12 5 -22 -16 -12 -6 -4 18
-91 -80 -47 -103 -127 -32 36 -62
-20 99 -97 -74 80 -96 -83 84
-15 3 127 -76 -82 121 -83 -86
54 6 22 94 -25 -16 91 -44
-25 26 31 11 13 -1 25 25
19 -34 -20 21 127 8 12 126
-17 -7 24 -27 5 43 -45 -6
55 7 21 -21 -27 7 -13 -75
-21 -9 3 19 -16 -68 -27 -13
-127 -35 -5 -58 -16 -4 0 -12
-54 -73 -26 -33 -35 -7 -31 -52
10 -46 -84 -9 -4 -12 53 2
-83 -32 -39 -127 -68 -9 -57 -1
14 -23 21 -41 -75 -36 -20 -27
10 -20 -38 30 52 -85 11 66
-35 9 30 -48 26 59 -127 8
67 -82 -1 35 -4 15 34 -64
5 37 -49 0 14 -47 4 -75
-24 -14 -100 2 24 -87 -70 -25
-86 50 27 -89 83 72 -80 -11
33 -72 89 63 -91 127 118 -118

functional_1/conv2d_1/Conv2D i1 [8, 1, 1, 8]
00000000: 27ec 0e00 767f defb f054 2f14 07f5 ef81
00000010: 81f7 2dcd 120c fedb fdd0 16f4 0e06 8107
00000020: 09e6 7f06 0303 0edc 0a13 7ffa fa05 ca09
00000030: b244 3fde 3dee e181 8121 1704 1e1c 0013
39 -20 14 0 118 127 -34 -5
-16 84 47 20 7 -11 -17 -127
-127 -9 45 -51 18 12 -2 -37
-3 -48 22 -12 14 6 -127 7
9 -26 127 6 3 3 14 -36
10 19 127 -6 -6 5 -54 9
-78 68 63 -34 61 -18 -31 -127
-127 33 23 4 30 28 0 19

functional_1/conv2d_2/Conv2D i1 [4, 1, 1, 8]
00000000: e349 2239 2681 ef42 ca77 65bd 4578 cd7f
00000010: 11ed 7ffd fde2 0eba 283f aef5 2212 d981
-29 73 34 57 38 -127 -17 66
-54 119 101 -67 69 120 -51 127
17 -19 127 -3 -3 -30 14 -70
40 63 -82 -11 34 18 -39 -127

functional_1/conv2d_3/Conv2D i1 [8, 1, 1, 4]
00000000: dcc1 a97f ea81 4b98 ad01 8133 baa7 7fc0
00000010: e0dd 811a 8138 ede1 8189 0cef edde 8125
-36 -63 -87 127 -22 -127 75 -104
-83 1 -127 51 -70 -89 127 -64
-32 -35 -127 26 -127 56 -19 -31
-127 -119 12 -17 -19 -34 -127 37

functional_1/conv2d_4/Conv2D i1 [4, 1, 1, 8]
00000000: d3e6 edb9 290d 207f adf9 81b1 73f1 5168
00000010: b57f f0f6 e152 d2ed 7ff7 5352 aef9 f9e0
-45 -26 -19 -71 41 13 32 127
-83 -7 -127 -79 115 -15 81 104
-75 127 -16 -10 -31 82 -46 -19
127 -9 83 82 -82 -7 -7 -32

functional_1/conv2d_5/Conv2D i1 [24, 1, 1, 4]
00000000: ce95 cd7f 8163 ddf3 2045 f981 9e81 0df0
00000010: 7f7c fadf 1c08 7fed 937f f401 d798 0e81
00000020: 1c50 f27f d981 2e20 f4bc b87f 9781 1519
00000030: c39d 007f 818d fb4e 8136 fedf e181 001f
00000040: 3841 2381 957f f8fd c281 ee59 e1a2 fa7f
00000050: 7fbc fff1 f2bb e17f b881 ed52 ca81 f859
-50 -107 -51 127 -127 99 -35 -13
32 69 -7 -127 -98 -127 13 -16
127 124 -6 -33 28 8 127 -19
-109 127 -12 1 -41 -104 14 -127
28 80 -14 127 -39 -127 46 32
-12 -68 -72 127 -105 -127 21 25
-61 -99 0 127 -127 -115 -5 78
-127 54 -2 -33 -31 -127 0 31
56 65 35 -127 -107 127 -8 -3
-62 -127 -18 89 -31 -94 -6 127
127 -68 -1 -15 -14 -69 -31 127
-72 -127 -19 82 -54 -127 -8 89

functional_1/conv2d_6/Conv2D i1 [8, 1, 1, 24]
00000000: 280c ec13 fdfb ee21 f4f3 2a21 1fd1 f9fc
00000010: 3d15 fbf4 1235 ef81 221e 1ed5 d9f7 c615
00000020: ff0a 18cb 1800 47f3 3531 eefe 8128 fafe
00000030: ff03 7f03 0406 0101 fd34 fafd 42ff f3f7
00000040: 02f3 f8f7 1afe f9f7 dee4 1a1d 2b08 301a
00000050: f301 e427 11f9 3702 dcf2 f7ff 81ec f8fb
00000060: e21a fdc8 d71a eee2 a2f5 e2d6 2981 0d86
00000070: c4ba 1882 f2a8 0e17 66e3 c77d 7fb3 ffc6
00000080: beef 6666 abf8 3bd2 53cb debe 2e26 cefe
00000090: 060b 1704 050a 0381 00c8 0504 06fd cf06
000000a0: fd0c fe05 e80a fffe cdc4 e6d7 eb91 fce3
000000b0: 0cff dcd6 051f 1f06 dd00 8111 feee 83b2
40 12 -20 19 -3 -5 -18 33
-12 -13 42 33 31 -47 -7 -4
61 21 -5 -12 18 53 -17 -127
34 30 30 -43 -39 -9 -58 21
-1 10 24 -53 24 0 71 -13
53 49 -18 -2 -127 40 -6 -2
-1 3 127 3 4 6 1 1
-3 52 -6 -3 66 -1 -13 -9
2 -13 -8 -9 26 -2 -7 -9
-34 -28 26 29 43 8 48 26
-13 1 -28 39 17 -7 55 2
-36 -14 -9 -1 -127 -20 -8 -5
-30 26 -3 -56 -41 26 -18 -30
-94 -11 -30 -42 41 -127 13 -122
-60 -70 24 -126 -14 -88 14 23
102 -29 -57 125 127 -77 -1 -58
-66 -17 102 102 -85 -8 59 -46
83 -53 -34 -66 46 38 -50 -2
6 11 23 4 5 10 3 -127
0 -56 5 4 6 -3 -49 6
-3 12 -2 5 -24 10 -1 -2
-51 -60 -26 -41 -21 -111 -4 -29
12 -1 -36 -42 5 31 31 6
-35 0 -127 17 -2 -18 -125 -78

functional_1/conv2d_7/Conv2D i1 [32, 1, 1, 8]
00000000: fd58 b77f 1cfc 9a1a adaf ef33 0481 f720
00000010: 050d 1b31 f604 8102 0b35 7f19 090d f22f
00000020: f5b7 2db3 10ff 7f13 0eeb 1105 0fec 81f8
00000030: da85 52e5 7f33 1023 7f49 35ed cbb6 aba8
00000040: 0271 e67f 090c c413 193e 8146 0502 a3f4
00000050: 4c72 137f e6ef 25c7 7fe9 0413 1cdd 0940
00000060: 225c 337f 1aec f6db 2a57 349b 81ed 2fea
00000070: 0305 7f24 0dca d828 00a2 0f59 c87f 0617
00000080: c247 b781 67ff d355 7608 52f7 02ec 897f
00000090: ee56 874d e7f9 7ff6 fa7f 2ec7 fa2f 02fc
000000a0: 02f5 fd0b fbf1 81ee 4a6b bbff ad32 dc7f
000000b0: f7ac 157f ff3c fa15 7fdd e021 13b5 1617
000000c0: 0021 fb00 b80f 0b7f bddb 3af8 274d f37f
000000d0: 3f6b f281 1193 d93a 7fe9 f920 29cb 1309
000000e0: dcba e754 6613 d47f f710 0f04 7fdf b384
000000f0: dd81 0850 2a1c f883 8118 00bc 3429 f06b
-3 88 -73 127 28 -4 -102 26
-83 -81 -17 51 4 -127 -9 32
5 13 27 49 -10 4 -127 2
11 53 127 25 9 13 -14 47
-11 -73 45 -77 16 -1 127 19
14 -21 17 5 15 -20 -127 -8
-38 -123 82 -27 127 51 16 35
127 73 53 -19 -53 -74 -85 -88
2 113 -26 127 9 12 -60 19
25 62 -127 70 5 2 -93 -12
76 114 19 127 -26 -17 37 -57
127 -23 4 19 28 -35 9 64
34 92 51 127 26 -20 -10 -37
42 87 52 -101 -127 -19 47 -22
3 5 127 36 13 -54 -40 40
0 -94 15 89 -56 127 6 23
-62 71 -73 -127 103 -1 -45 85
118 8 82 -9 2 -20 -119 127
-18 86 -121 77 -25 -7 127 -10
-6 127 46 -57 -6 47 2 -4
2 -11 -3 11 -5 -15 -127 -18
74 107 -69 -1 -83 50 -36 127
-9 -84 21 127 -1 60 -6 21
127 -35 -32 33 19 -75 22 23
0 33 -5 0 -72 15 11 127
-67 -37 58 -8 39 77 -13 127
63 107 -14 -127 17 -109 -39 58
127 -23 -7 32 41 -53 19 9
-36 -70 -25 84 102 19 -44 127
-9 16 15 4 127 -33 -77 -124
-35 -127 8 80 42 28 -8 -125
-127 24 0 -68 52 41 -16 107

functional_1/conv2d_8/Conv2D i1 [8, 1, 1, 32]
00000000: ec3e d9d3 cfec 6def c0ec e1d8 dc00 c320
00000010: cae2 f754 a0d8 c903 cebc 76d2 b6f9 2581
00000020: 9bfb d0eb 9e59 f07f c576 6707 17c6 58cd
00000030: dafb d1eb bae3 db2a fded 0740 5301 3506
00000040: 1913 47c3 30fe f743 181d 2081 0fee a10c
00000050: 1adb 32fc 3bf2 ea0d eee4 d4f9 0003 0c23
00000060: f3f2 09f9 5581 26b2 4dd5 cff0 0b20 d01c
00000070: 341e fc31 3b10 0fed 1fe5 f5d6 e1fc d203
00000080: 3ad8 3681 d3cc 2bfc 07d6 3117 9112 1ff1
00000090: eb2a 9414 cb3a fcff 1309 2e1a f552 f411
000000a0: 1f59 1ade f8d3 b914 16d0 c417 d716 1e43
000000b0: 410d f80d 05f4 ae7f c6f2 ac6e 4128 f716
000000c0: f607 4616 7f01 aa36 1d1c 27e6 01bf 0a05
000000d0: 361b 36e3 d71c 26f5 05f8 d304 1721 1702
000000e0: a4e5 8139 12d7 1733 e7ef dedd 1d06 ffbf
000000f0: 05a1 5d36 f7ea ebd2 0986 37d2 06ab 64bd
-20 62 -39 -45 -49 -20 109 -17
-64 -20 -31 -40 -36 0 -61 32
-54 -30 -9 84 -96 -40 -55 3
-50 -68 118 -46 -74 -7 37 -127
-101 -5 -48 -21 -98 89 -16 127
-59 118 103 7 23 -58 88 -51
-38 -5 -47 -21 -70 -29 -37 42
-3 -19 7 64 83 1 53 6
25 19 71 -61 48 -2 -9 67
24 29 32 -127 15 -18 -95 12
26 -37 50 -4 59 -14 -22 13
-18 -28 -44 -7 0 3 12 35
-13 -14 9 -7 85 -127 38 -78
77 -43 -49 -16 11 32 -48 28
52 30 -4 49 59 16 15 -19
31 -27 -11 -42 -31 -4 -46 3
58 -40 54 -127 -45 -52 43 -4
7 -42 49 23 -111 18 31 -15
-21 42 -108 20 -53 58 -4 -1
19 9 46 26 -11 82 -12 17
31 89 26 -34 -8 -45 -71 20
22 -48 -60 23 -41 22 30 67
65 13 -8 13 5 -12 -82 127
-58 -14 -84 110 65 40 -9 22
-10 7 70 22 127 1 -86 54
29 28 39 -26 1 -65 10 5
54 27 54 -29 -41 28 38 -11
5 -8 -45 4 23 33 23 2
-92 -27 -127 57 18 -41 23 51
-25 -17 -34 -35 29 6 -1 -65
5 -95 93 54 -9 -22 -21 -46
9 -122 55 -46 6 -85 100 -67

functional_1/conv2d_9/Conv2D i1 [32, 1, 1, 8]
00000000: 550e 0bdd eb0d c67f fc7f 1a8b 5cba b63c
00000010: 2281 b008 3f07 b842 691a 457f 2d8d 92da
00000020: 4204 40dc 05c3 fb7f 1795 5381 de22 c8f6
00000030: 12ae 7d95 cf13 81d9 8664 dfcc 5711 e881
00000040: f106 55d6 9c16 027f 8776 ea8d 8122 319c
00000050: e202 3141 f807 7fd6 d30f 7f2a 101c fefd
00000060: 18d0 f60c e90f 157f 6755 cb81 6cb5 1d33
00000070: 1f0b f41e 7f18 f6be 1eda 7fa7 1aec b009
00000080: e7e4 8103 180b 151a b1e0 1efa 65c4 c77f
00000090: 0196 c265 44b4 4581 024b b75d 5add 7f24
000000a0: 1de3 5a1a fedf 81f0 e9e6 c5fa 12f0 0b81
000000b0: 257f 8e46 fdfc 5103 16e5 7f07 2beb fc0e
000000c0: d6f3 e745 8526 0c81 ee38 8110 f5fe 5ccf
000000d0: 0dcf 810b de09 1be8 0aee 0de3 7ff6 e7e7
000000e0: fed8 2ce9 81ff dc2d fe17 8110 f01a 0609
000000f0: f000 81d8 1426 de54 ddf3 dfee 7f02 2743
85 14 11 -35 -21 13 -58 127
-4 127 26 -117 92 -70 -74 60
34 -127 -80 8 63 7 -72 66
105 26 69 127 45 -115 -110 -38
66 4 64 -36 5 -61 -5 127
23 -107 83 -127 -34 34 -56 -10
18 -82 125 -107 -49 19 -127 -39
-122 100 -33 -52 87 17 -24 -127
-15 6 85 -42 -100 22 2 127
-121 118 -22 -115 -127 34 49 -100
-30 2 49 65 -8 7 127 -42
-45 15 127 42 16 28 -2 -3
24 -48 -10 12 -23 15 21 127
103 85 -53 -127 108 -75 29 51
31 11 -12 30 127 24 -10 -66
30 -38 127 -89 26 -20 -80 9
-25 -28 -127 3 24 11 21 26
-79 -32 30 -6 101 -60 -57 127
1 -106 -62 101 68 -76 69 -127
2 75 -73 93 90 -35 127 36
29 -29 90 26 -2 -33 -127 -16
-23 -26 -59 -6 18 -16 11 -127
37 127 -114 70 -3 -4 81 3
22 -27 127 7 43 -21 -4 14
-42 -13 -25 69 -123 38 12 -127
-18 56 -127 16 -11 -2 92 -49
13 -49 -127 11 -34 9 27 -24
10 -18 13 -29 127 -10 -25 -25
-2 -40 44 -23 -127 -1 -36 45
-2 23 -127 16 -16 26 6 9
-16 0 -127 -40 20 38 -34 84
-35 -13 -33 -18 127 2 39 67

functional_1/conv2d_10/Conv2D i1 [8, 1, 1, 32]
00000000: bef4 fa1b bc38 fd5f ee0e e881 eed1 eff4
00000010: f9bc 03df f1cb 04e9 a717 f190 de9a 9f8e
00000020: 19b2 79bb e2f7 cf2a 5d97 9dee cdae 06a5
00000030: 44fd 048a 7ff6 1d66 c3ff 1704 03ba 21eb
00000040: dd59 7550 c369 f215 fb0f 7fcd 0732 e9e4
00000050: 1037 1402 abdf 50b6 106e e0d4 a9a7 4cf1
00000060: 0b58 94b9 fdeb f5dc d026 4ded 3734 187f
00000070: de09 18a5 d1ef 23aa 11f9 01fc 0165 e7e3
00000080: 4f19 012c 3cc3 2d05 df1e 2130 e5b6 81f5
00000090: 3828 d5e3 1195 b19d 09d9 2487 3acc 4dba
000000a0: 133e 0004 f043 de08 e0cf e6fb eb59 caef
000000b0: 52eb fdf2 dbeb d6fc 5157 7fc9 d72f e2df
000000c0: 2af5 0938 f237 1c06 151e 35dc fa09 1dda
000000d0: dc4f 002f 0116 7ff4 403d d92a fee2 07fa
000000e0: b70d 1404 a0f8 9343 0030 1dbd 1b22 12d6
000000f0: 0026 7ff0 d2f9 e610 00ed 0920 b81a c42e
-66 -12 -6 27 -68 56 -3 95
-18 14 -24 -127 -18 -47 -17 -12
-7 -68 3 -33 -15 -53 4 -23
-89 23 -15 -112 -34 -102 -97 -114
25 -78 121 -69 -30 -9 -49 42
93 -105 -99 -18 -51 -82 6 -91
68 -3 4 -118 127 -10 29 102
-61 -1 23 4 3 -70 33 -21
-35 89 117 80 -61 105 -14 21
-5 15 127 -51 7 50 -23 -28
16 55 20 2 -85 -33 80 -74
16 110 -32 -44 -87 -89 76 -15
11 88 -108 -71 -3 -21 -11 -36
-48 38 77 -19 55 52 24 127
-34 9 24 -91 -47 -17 35 -86
17 -7 1 -4 1 101 -25 -29
79 25 1 44 60 -61 45 5
-33 30 33 48 -27 -74 -127 -11
56 40 -43 -29 17 -107 -79 -99
9 -39 36 -121 58 -52 77 -70
19 62 0 4 -16 67 -34 8
-32 -49 -26 -5 -21 89 -54 -17
82 -21 -3 -14 -37 -21 -42 -4
81 87 127 -55 -41 47 -30 -33
42 -11 9 56 -14 55 28 6
21 30 53 -36 -6 9 29 -38
-36 79 0 47 1 22 127 -12
64 61 -39 42 -2 -30 7 -6
-73 13 20 4 -96 -8 -109 67
0 48 29 -67 27 34 18 -42
0 38 127 -16 -46 -7 -26 16
0 -19 9 32 -72 26 -60 46

functional_1/conv2d_11/Conv2D i1 [32, 1, 1, 8]
00000000: 0f66 f6a1 7f16 ee06 1e7f d46c 2dcd d80b
00000010: f41a 1317 8112 17fc e5e9 00dc 81fd 43c8
00000020: fc81 3b85 e205 acff ea7f f7b6 58a3 d67d
00000030: fd32 f8e0 0ff2 0e81 f710 f605 26e9 f181
00000040: f0db df00 3281 fe32 ceae 0978 1481 f12f
00000050: d133 2dee be09 087f f078 8176 fb1d 21f9
00000060: ea0a 0cfb e3fc fc81 fceb 07e2 0cf2 7fff
00000070: e679 ec81 969c 26b0 cbe8 81ed a22e 04bf
00000080: e0ec 81c1 d02d 0fce fce4 81f3 f222 f80d
00000090: d19b 037f 2c4e 0e3e 8107 03fe 1218 12c8
000000a0: 1af6 8101 401e 0af7 ffe2 7fc1 1d24 0fb0
000000b0: e8eb eafc 7f17 dcf7 fb7f 0693 1342 fbf6
000000c0: f80f 81fe a20c 24e0 f803 81e9 ec08 e7d1
000000d0: 3b03 81e4 36fb a51b 14c7 002e 071b 127f
000000e0: 12df 0401 7f18 f3eb 0632 f6b3 f7f8 e97f
000000f0: 1ee1 7f34 f64c 0d1b d72e 7f4a 0206 fa27
15 102 -10 -95 127 22 -18 6
30 127 -44 108 45 -51 -40 11
-12 26 19 23 -127 18 23 -4
-27 -23 0 -36 -127 -3 67 -56
-4 -127 59 -123 -30 5 -84 -1
-22 127 -9 -74 88 -93 -42 125
-3 50 -8 -32 15 -14 14 -127
-9 16 -10 5 38 -23 -15 -127
-16 -37 -33 0 50 -127 -2 50
-50 -82 9 120 20 -127 -15 47
-47 51 45 -18 -66 9 8 127
-16 120 -127 118 -5 29 33 -7
-22 10 12 -5 -29 -4 -4 -127
-4 -21 7 -30 12 -14 127 -1
-26 121 -20 -127 -106 -100 38 -80
-53 -24 -127 -19 -94 46 4 -65
-32 -20 -127 -63 -48 45 15 -50
-4 -28 -127 -13 -14 34 -8 13
-47 -101 3 127 44 78 14 62
-127 7 3 -2 18 24 18 -56
26 -10 -127 1 64 30 10 -9
-1 -30 127 -63 29 36 15 -80
-24 -21 -22 -4 127 23 -36 -9
-5 127 6 -109 19 66 -5 -10
-8 15 -127 -2 -94 12 36 -32
-8 3 -127 -23 -20 8 -25 -47
59 3 -127 -28 54 -5 -91 27
20 -57 0 46 7 27 18 127
18 -33 4 1 127 24 -13 -21
6 50 -10 -77 -9 -8 -23 127
30 -31 127 52 -10 76 13 27
-41 46 127 74 2 6 -6 39

functional_1/conv2d_12/Conv2D i1 [8, 1, 1, 32]
00000000: c109 0a13 f721 0afe f2cc 1011 0911 1021
00000010: 117f f3ed ee00 fb25 1d24 f013 f9e7 cae7
00000020: 6419 2ffd 2dc0 c2cb 0d43 26ee 1e38 cc1d
00000030: 0572 3d03 d10b e8d0 ea14 d0d5 3f0c 81e2
00000040: f605 ca2c 0a0e e215 e310 e812 560d ca12
00000050: 01e9 34e8 2605 3cf8 1bfe 1003 8125 e119
00000060: 031d da08 133d 09e2 7f4b f8ef 1f12 1430
00000070: 1d63 d4f2 0003 39cf 1013 f301 04e0 50fa
00000080: e9e5 e1e8 ffe8 09fe 2206 2c08 b507 fcd4
00000090: f84b 247f f6b0 5511 01e1 e1fe df0d e7e4
000000a0: 1bff 0207 bbfd f6f3 f508 05eb 0a81 ed0c
000000b0: 0116 04f6 f707 07f8 0d00 f3f1 0ef3 e7f0
000000c0: 1cf3 fd1a d9c7 4109 ff13 81f3 9d07 0822
000000d0: 0c3f e8d3 ff0b 07d6 1e28 022c d06c fdd8
000000e0: f616 f314 7f0b 0e06 fb03 05a8 eec4 f400
000000f0: 0a14 fd00 fff9 1404 11f7 f906 f213 0504
-63 9 10 19 -9 33 10 -2
-14 -52 16 17 9 17 16 33
17 127 -13 -19 -18 0 -5 37
29 36 -16 19 -7 -25 -54 -25
100 25 47 -3 45 -64 -62 -53
13 67 38 -18 30 56 -52 29
5 114 61 3 -47 11 -24 -48
-22 20 -48 -43 63 12 -127 -30
-10 5 -54 44 10 14 -30 21
-29 16 -24 18 86 13 -54 18
1 -23 52 -24 38 5 60 -8
27 -2 16 3 -127 37 -31 25
3 29 -38 8 19 61 9 -30
127 75 -8 -17 31 18 20 48
29 99 -44 -14 0 3 57 -49
16 19 -13 1 4 -32 80 -6
-23 -27 -31 -24 -1 -24 9 -2
34 6 44 8 -75 7 -4 -44
-8 75 36 127 -10 -80 85 17
1 -31 -31 -2 -33 13 -25 -28
27 -1 2 7 -69 -3 -10 -13
-11 8 5 -21 10 -127 -19 12
1 22 4 -10 -9 7 7 -8
13 0 -13 -15 14 -13 -25 -16
28 -13 -3 26 -39 -57 65 9
-1 19 -127 -13 -99 7 8 34
12 63 -24 -45 -1 11 7 -42
30 40 2 44 -48 108 -3 -40
-10 22 -13 20 127 11 14 6
-5 3 5 -88 -18 -60 -12 0
10 20 -3 0 -1 -7 20 4
17 -9 -7 6 -14 19 5 4

functional_1/conv2d_13/Conv2D i1 [48, 1, 1, 8]
00000000: b928 48a5 10e2 f081 29f7 f7c4 f781 e888
00000010: 0424 2211 ecc8 f37f aee8 0128 2853 237f
00000020: 3810 1ea6 813a 34e5 e0e6 1dd7 7f03 6560
00000030: d47f cddd 0f10 add0 6681 420d 6ad5 cae5
00000040: f5d1 1be1 0d7f 1046 7f79 8dfc 4611 2a20
00000050: 2115 c6ff cd3d c381 ca2d 2aef f630 7fb8
00000060: b201 81b3 1b11 1ec7 f163 a9bc dc81 d465
00000070: fcfd e387 7ff7 e609 81ca feb3 d2f7 fe07
00000080: e359 a707 8117 001e 42a1 f87f c999 3e15
00000090: 5dc3 0806 7f17 4edd 1fd9 81b1 14b5 0a06
000000a0: afa4 ae81 aeb5 2d15 8281 f0b4 f4b3 e9a9
000000b0: 977f 298e da2a d919 81bd fc13 f2a9 df0b
000000c0: 7f68 260d fef1 f01a d52b b181 4af9 2b27
000000d0: 109d e5bf e17f f461 7f7b a0f9 1d75 2716
000000e0: 811c 9e54 3bf3 ff20 d790 db79 2fc5 7f31
000000f0: 8881 d713 113f 468e d533 f9a0 2d0e 7f13
-71 40 72 -91 16 -30 -16 -127
41 -9 -9 -60 -9 -127 -24 -120
4 36 34 17 -20 -56 -13 127
-82 -24 1 40 40 83 35 127
56 16 30 -90 -127 58 52 -27
-32 -26 29 -41 127 3 101 96
-44 127 -51 -35 15 16 -83 -48
102 -127 66 13 106 -43 -54 -27
-11 -47 27 -31 13 127 16 70
127 121 -115 -4 70 17 42 32
33 21 -58 -1 -51 61 -61 -127
-54 45 42 -17 -10 48 127 -72
-78 1 -127 -77 27 17 30 -57
-15 99 -87 -68 -36 -127 -44 101
-4 -3 -29 -121 127 -9 -26 9
-127 -54 -2 -77 -46 -9 -2 7
-29 89 -89 7 -127 23 0 30
66 -95 -8 127 -55 -103 62 21
93 -61 8 6 127 23 78 -35
31 -39 -127 -79 20 -75 10 6
-81 -92 -82 -127 -82 -75 45 21
-126 -127 -16 -76 -12 -77 -23 -87
-105 127 41 -114 -38 42 -39 25
-127 -67 -4 19 -14 -87 -33 11
127 104 38 13 -2 -15 -16 26
-43 43 -79 -127 74 -7 43 39
16 -99 -27 -65 -31 127 -12 97
127 123 -96 -7 29 117 39 22
-127 28 -98 84 59 -13 -1 32
-41 -112 -37 121 47 -59 127 49
-120 -127 -41 19 17 63 70 -114
-43 51 -7 -96 45 14 127 19

functional_1/conv2d_14/Conv2D i1 [8, 1, 1, 48]
00000000: 36d5 0a1f ede4 321e bc99 e422 451c 04cc
00000010: bcfb 37ce dc50 1a81 3d05 fc4c 1cf3 2a27
00000020: aaf0 1cd5 cd12 fbef 3fbc f017 f807 f224
00000030: a915 1020 d4d0 b8d5 2181 bcc8 55ba 0ad6
00000040: 163c 2430 0e4e aeb3 560a 0d13 fce5 e717
00000050: 2f47 fb04 90d0 d204 27d4 3c11 23dc 06ef
00000060: d5e9 1deb 0944 edb8 1ef5 38ae f12c fa2c
00000070: 9b0b 2264 7fde b45a 2f9d e1ee 24ab bee0
00000080: 3c0b e424 3353 3621 e1ca 0511 da6b e101
00000090: fe02 f9cf bc90 030c 0f02 efa6 2be6 a5c3
000000a0: cf9a 1714 04fe d9e7 41a3 0119 f145 c216
000000b0: 0e18 d281 c595 0f5b 23d9 ba33 cd1c 3e9a
000000c0: 08b7 f109 7f1d 22ee 0a0e 1e19 0a37 2ae1
000000d0: c507 1702 d61f 17e3 3413 a82d 49f7 5dd3
000000e0: e4ef 340e 0029 dfcb 31f7 10ed 16ed 0f69
000000f0: cd81 c7e5 bdee d20c 55f5 d2fd b516 cf19
54 -43 10 31 -19 -28 50 30
-68 -103 -28 34 69 28 4 -52
-68 -5 55 -50 -36 80 26 -127
61 5 -4 76 28 -13 42 39
-86 -16 28 -43 -51 18 -5 -17
63 -68 -16 23 -8 7 -14 36
-87 21 16 32 -44 -48 -72 -43
33 -127 -68 -56 85 -70 10 -42
22 60 36 48 14 78 -82 -77
86 10 13 19 -4 -27 -25 23
47 71 -5 4 -112 -48 -46 4
39 -44 60 17 35 -36 6 -17
-43 -23 29 -21 9 68 -19 -72
30 -11 56 -82 -15 44 -6 44
-101 11 34 100 127 -34 -76 90
47 -99 -31 -18 36 -85 -66 -32
60 11 -28 36 51 83 54 33
-31 -54 5 17 -38 107 -31 1
-2 2 -7 -49 -68 -112 3 12
15 2 -17 -90 43 -26 -91 -61
-49 -102 23 20 4 -2 -39 -25
65 -93 1 25 -15 69 -62 22
14 24 -46 -127 -59 -107 15 91
35 -39 -70 51 -51 28 62 -102
8 -73 -15 9 127 29 34 -18
10 14 30 25 10 55 42 -31
-59 7 23 2 -42 31 23 -29
52 19 -88 45 73 -9 93 -45
-28 -17 52 14 0 41 -33 -53
49 -9 16 -19 22 -19 15 105
-51 -127 -57 -27 -67 -18 -46 12
85 -11 -46 -3 -75 22 -49 25

functional_1/conv2d_15/Conv2D i1 [48, 1, 1, 8]
00000000: 77d2 db3d 8109 cebc 6b4d b6a3 7e6a 6981
00000010: 4cdd 81eb cd0d 9ff8 1ade 7f47 1af5 e832
00000020: 2a29 ee81 6df6 660f dcb5 5258 7fc0 3647
00000030: 19e1 d281 5400 b153 d2a7 767f c750 d367
00000040: 1a04 58f4 4681 3aa5 5441 f310 5011 2181
00000050: da95 7f07 46dd 4c65 cd68 d67f c019 e624
00000060: 487f 5235 3b26 0a7c 7f79 1023 041e f55b
00000070: 2fac 7fea 4b02 27f7 82d3 5d12 59d7 7f1e
00000080: c006 81a5 cf91 1c49 1f39 b181 e4cb 2b13
00000090: d332 7fc1 2902 3317 7f18 7119 d11c e209
000000a0: 0210 3881 6f1f 0bd4 81c9 f3e4 d601 e70b
000000b0: cf3b 7fdc 232c 7a1d bc18 ccbe b1d9 e97f
000000c0: b818 247f 5c0d 3afd 0631 b7ff 81e8 5150
000000d0: cfa0 dbf5 14b4 3681 8119 d1a0 f4f7 34be
000000e0: 7f2b a894 6005 5710 0502 e57f 26fc 1afd
000000f0: afa4 de81 121f d2ad 0321 81d6 deff 1d0e
119 -46 -37 61 -127 9 -50 -68
107 77 -74 -93 126 106 105 -127
76 -35 -127 -21 -51 13 -97 -8
26 -34 127 71 26 -11 -24 50
42 41 -18 -127 109 -10 102 15
-36 -75 82 88 127 -64 54 71
25 -31 -46 -127 84 0 -79 83
-46 -89 118 127 -57 80 -45 103
26 4 88 -12 70 -127 58 -91
84 65 -13 16 80 17 33 -127
-38 -107 127 7 70 -35 76 101
-51 104 -42 127 -64 25 -26 36
72 127 82 53 59 38 10 124
127 121 16 35 4 30 -11 91
47 -84 127 -22 75 2 39 -9
-126 -45 93 18 89 -41 127 30
-64 6 -127 -91 -49 -111 28 73
31 57 -79 -127 -28 -53 43 19
-45 50 127 -63 41 2 51 23
127 24 113 25 -47 28 -30 9
2 16 56 -127 111 31 11 -44
-127 -55 -13 -28 -42 1 -25 11
-49 59 127 -36 35 44 122 29
-68 24 -52 -66 -79 -39 -23 127
-72 24 36 127 92 13 58 -3
6 49 -73 -1 -127 -24 81 80
-49 -96 -37 -11 20 -76 54 -127
-127 25 -47 -96 -12 -9 52 -66
127 43 -88 -108 96 5 87 16
5 2 -27 127 38 -4 26 -3
-81 -92 -34 -127 18 31 -46 -83
3 33 -127 -42 -34 -1 29 14

functional_1/conv2d_16/Conv2D i1 [8, 1, 1, 48]
00000000: feec b3f3 c4e2 3bf2 f512 d012 02e6 0329
00000010: 10aa 1422 12de caa9 81e8 2b8f 3b30 bd1b
00000020: fadc 184e e502 27f5 16b4 0513 dd5a d7f2
00000030: 3cfe 48fc c21e da0a fef7 4bad 0d3d 2cd4
00000040: 22ba eed6 30d2 3cc6 2aeb 550a 280c c510
00000050: c609 fc81 ddfa 0cbf f88f 4810 e146 1bdc
00000060: fecc 6032 4edc da31 de48 e91a 5fec 9cca
00000070: 0945 81e2 c32b 5701 30fe b8e8 c3ed f3b0
00000080: cb64 30e1 4daa 04d5 0d65 f1c6 1ddc f60d
00000090: d8ca b745 f4d2 fe03 0c0e 33eb 4814 011b
000000a0: 192e 33ea 4c34 cc0a 0ccb 0cd7 d27f affb
000000b0: 30c7 def7 1dfa 68c4 de1f e61d 172b a7eb
000000c0: ed1c 0c5e 1806 2c41 ddf8 e264 7fcf 85ee
000000d0: e9f5 8614 bff7 0cf5 6f02 45c5 40f7 11c6
000000e0: d64b 0e3e 42e1 e93e 2df4 e4cc 0c2c 2229
000000f0: 0aca 0e00 f8fb fd1a 1f0f 25f3 0b0d 06f7
-2 -20 -77 -13 -60 -30 59 -14
-11 18 -48 18 2 -26 3 41
16 -86 20 34 18 -34 -54 -87
-127 -24 43 -113 59 48 -67 27
-6 -36 24 78 -27 2 39 -11
22 -76 5 19 -35 90 -41 -14
60 -2 72 -4 -62 30 -38 10
-2 -9 75 -83 13 61 44 -44
34 -70 -18 -42 48 -46 60 -58
42 -21 85 10 40 12 -59 16
-58 9 -4 -127 -35 -6 12 -65
-8 -113 72 16 -31 70 27 -36
-2 -52 96 50 78 -36 -38 49
-34 72 -23 26 95 -20 -100 -54
9 69 -127 -30 -61 43 87 1
48 -2 -72 -24 -61 -19 -13 -80
-53 100 48 -31 77 -86 4 -43
13 101 -15 -58 29 -36 -10 13
-40 -54 -73 69 -12 -46 -2 3
12 14 51 -21 72 20 1 27
25 46 51 -22 76 52 -52 10
12 -53 12 -41 -46 127 -81 -5
48 -57 -34 -9 29 -6 104 -60
-34 31 -26 29 23 43 -89 -21
-19 28 12 94 24 6 44 65
-35 -8 -30 100 127 -49 -123 -18
-23 -11 -122 20 -65 -9 12 -11
111 2 69 -59 64 -9 17 -58
-42 75 14 62 66 -31 -23 62
45 -12 -28 -52 12 44 34 41
10 -54 14 0 -8 -5 -3 26
31 15 37 -13 11 13 6 -9

functional_1/conv2d_17/Conv2D i1 [48, 1, 1, 8]
00000000: e762 7f97 fb1e ec0d cebe 787f c14c ace6
00000010: 3b18 2a2f 8107 44ff 0e81 c247 efc7 1010
00000020: 172b 1af9 0581 f9f0 b5ab 41f7 8106 e10a
00000030: 1aac 7f13 58fc 1d21 dced ad7f 0df8 5f26
00000040: 102f 21ee c481 f4ee 16d1 7f13 40ff fc08
00000050: 6ab1 217f e7f9 e1f8 0ee3 f417 f57f ff3a
00000060: f117 f00c f5f5 ec7f 0889 6eb3 7fd6 691c
00000070: cbbd d0e1 7ad4 7f24 7162 bd20 5a7f ef3b
00000080: e807 e4f9 01ee f47f 9c7f 510c 2230 49d5
00000090: 7f88 affa 10e5 c4fd 7f3e 0637 372b 6723
000000a0: 857f 40f6 2a22 24d1 10a4 4381 75a8 421f
000000b0: 7f39 1105 270f 29df d798 29da f37f 2cc3
000000c0: 6d81 07ff 08e9 06fa 7f9d fde9 dbda ad14
000000d0: 164b c80c 8124 bdda 81aa db15 cefa 4a10
000000e0: 7d7f 0119 2bc8 2fcc 0b2f f501 2418 8101
000000f0: ee4e ba13 b2f9 8105 f62e 8188 27ea 1be2
-25 98 127 -105 -5 30 -20 13
-50 -66 120 127 -63 76 -84 -26
59 24 42 47 -127 7 68 -1
14 -127 -62 71 -17 -57 16 16
23 43 26 -7 5 -127 -7 -16
-75 -85 65 -9 -127 6 -31 10
26 -84 127 19 88 -4 29 33
-36 -19 -83 127 13 -8 95 38
16 47 33 -18 -60 -127 -12 -18
22 -47 127 19 64 -1 -4 8
106 -79 33 127 -25 -7 -31 -8
14 -29 -12 23 -11 127 -1 58
-15 23 -16 12 -11 -11 -20 127
8 -119 110 -77 127 -42 105 28
-53 -67 -48 -31 122 -44 127 36
113 98 -67 32 90 127 -17 59
-24 7 -28 -7 1 -18 -12 127
-100 127 81 12 34 48 73 -43
127 -120 -81 -6 16 -27 -60 -3
127 62 6 55 55 43 103 35
-123 127 64 -10 42 34 36 -47
16 -92 67 -127 117 -88 66 31
127 57 17 5 39 15 41 -33
-41 -104 41 -38 -13 127 44 -61
109 -127 7 -1 8 -23 6 -6
127 -99 -3 -23 -37 -38 -83 20
22 75 -56 12 -127 36 -67 -38
-127 -86 -37 21 -50 -6 74 16
125 127 1 25 43 -56 47 -52
11 47 -11 1 36 24 -127 1
-18 78 -70 19 -78 -7 -127 5
-10 46 -127 -120 39 -22 27 -30

functional_1/conv2d_18/Conv2D i1 [16, 1, 1, 48]
00000000: 0917 2403 e916 ea29 26e6 ee0e 0521 f60c
00000010: bbbf 1a34 e8e8 5409 eb1e fffa ce18 23ef
00000020: 0d81 c5e9 d11a eeb5 16f8 0c38 f550 c8dd
00000030: 0e21 b900 d52c f1eb f423 fd0a 9511 81ee
00000040: 0537 dc23 2632 2203 01db 0903 fcda 04b6
00000050: 17ea 240a ef02 c6e4 fafb 3e2c 1317 db03
00000060: 0516 37fe 1916 f505 4df1 fcf8 d6f8 157f
00000070: 3018 2dc2 08ed 18f4 efe0 c7f2 24dd 19c8
00000080: 9ddb eb91 1669 f102 231b 265f f7dc 0004
00000090: 93e9 2f07 0cdf e0c8 e351 6c13 9f13 cef7
000000a0: 1eda 4307 c71c 1109 813a e202 ffa9 f47c
000000b0: 17d3 111a e804 d32a f907 46ef b2ee 07e8
000000c0: b645 f3a2 42f3 0d5e 0c01 d126 2408 fad1
000000d0: 6689 d73d 65b8 f33e f78d 9ec6 6d13 ecdb
000000e0: 7fb3 cf5b 4be2 f2cb c157 1405 1b9d 7ff4
000000f0: 8d28 ad1c fafe 3a1c 319e 28f9 28d6 c2c7
9 23 36 3 -23 22 -22 41
38 -26 -18 14 5 33 -10 12
-69 -65 26 52 -24 -24 84 9
-21 30 -1 -6 -50 24 35 -17
13 -127 -59 -23 -47 26 -18 -75
22 -8 12 56 -11 80 -56 -35
14 33 -71 0 -43 44 -15 -21
-12 35 -3 10 -107 17 -127 -18
5 55 -36 35 38 50 34 3
1 -37 9 3 -4 -38 4 -74
23 -22 36 10 -17 2 -58 -28
-6 -5 62 44 19 23 -37 3
5 22 55 -2 25 22 -11 5
77 -15 -4 -8 -42 -8 21 127
48 24 45 -62 8 -19 24 -12
-17 -32 -57 -14 36 -35 25 -56
-99 -37 -21 -111 22 105 -15 2
35 27 38 95 -9 -36 0 4
-109 -23 47 7 12 -33 -32 -56
-29 81 108 19 -97 19 -50 -9
30 -38 67 7 -57 28 17 9
-127 58 -30 2 -1 -87 -12 124
23 -45 17 26 -24 4 -45 42
-7 7 70 -17 -78 -18 7 -24
-74 69 -13 -94 66 -13 13 94
12 1 -47 38 36 8 -6 -47
102 -119 -41 61 101 -72 -13 62
-9 -115 -98 -58 109 19 -20 -37
127 -77 -49 91 75 -30 -14 -53
-63 87 20 5 27 -99 127 -12
-115 40 -83 28 -6 -2 58 28
49 -98 40 -7 40 -42 -62 -57

functional_1/conv2d_19/Conv2D i1 [96, 1, 1, 16]
00000000: 8eec 3f74 83f6 7ab3 16c4 1db3 fdae 7ffb
00000010: 22e1 3a81 2728 5436 abe9 dd28 7e38 29b7
00000020: 542e 38cd 0825 0981 3519 1056 af05 0e00
00000030: ce31 cc30 ec1e 0ebe 1c21 bfb1 437f f144
00000040: 4b24 3deb 04f8 0f36 ba0b 25e8 e081 0afb
00000050: 5e03 fc93 ea39 81a0 1e4e e522 1750 b7ae
00000060: e76e 2181 0fda d5b5 16b0 e1dd 7c35 ee31
00000070: 6e3c 07f2 97c3 4319 1add 017f 36db d7fe
00000080: 7e39 fa20 d6f8 4330 72a0 3859 e9e7 f27f
00000090: c7f2 4fe5 072d f7e5 810e 7813 dd48 ef14
000000a0: 5eff fd0e ffed e0f2 c4db fd34 7fe7 62e7
000000b0: d0dc f106 117f 58df c43b 1857 f053 76a0
000000c0: c8d2 1d03 da0e 5ada 051c fdf3 81cb b858
000000d0: 2309 ca9e 007f 2bd3 0843 1cb2 0411 e927
000000e0: 40e8 48eb ee0e a381 102a 064e f220 d1ff
000000f0: 13c1 f802 1736 f060 4f1d 04e5 612b 81ca
-114 -20 63 116 -125 -10 122 -77
22 -60 29 -77 -3 -82 127 -5
34 -31 58 -127 39 40 84 54
-85 -23 -35 40 126 56 41 -73
84 46 56 -51 8 37 9 -127
53 25 16 86 -81 5 14 0
-50 49 -52 48 -20 30 14 -66
28 33 -65 -79 67 127 -15 68
75 36 61 -21 4 -8 15 54
-70 11 37 -24 -32 -127 10 -5
94 3 -4 -109 -22 57 -127 -96
30 78 -27 34 23 80 -73 -82
-25 110 33 -127 15 -38 -43 -75
22 -80 -31 -35 124 53 -18 49
110 60 7 -14 -105 -61 67 25
26 -35 1 127 54 -37 -41 -2
126 57 -6 32 -42 -8 67 48
114 -96 56 89 -23 -25 -14 127
-57 -14 79 -27 7 45 -9 -27
-127 14 120 19 -35 72 -17 20
94 -1 -3 14 -1 -19 -32 -14
-60 -37 -3 52 127 -25 98 -25
-48 -36 -15 6 17 127 88 -33
-60 59 24 87 -16 83 118 -96
-56 -46 29 3 -38 14 90 -38
5 28 -3 -13 -127 -53 -72 88
35 9 -54 -98 0 127 43 -45
8 67 28 -78 4 17 -23 39
64 -24 72 -21 -18 14 -93 -127
16 42 6 78 -14 32 -47 -1
19 -63 -8 2 23 54 -16 96
79 29 4 -27 97 43 -127 -54

functional_1/conv2d_20/Conv2D i1 [16, 1, 1, 96]
00000000: d63d 1608 090b ebe9 1add e302 0c0c d1dc
00000010: 060a 2110 0bff 2637 ad13 f4d5 0afa c5fa
00000020: f824 0111 0cc9 f73b 1d00 f5ef 01fc 1315
00000030: fb09 0239 1fe7 2605 e11f 1a0c 027f 50f5
00000040: b81b fe06 f533 1eee 0def fdec fe17 cff1
00000050: c3fb 160a 1cf3 07fa 20ee ea13 aaf6 1bfd
00000060: f240 3cac b821 f2e7 09f7 0ef3 4ccb f4ab
00000070: 0635 fbee 52b2 f045 5c04 c0d6 b618 ee1c
00000080: 60c7 f8f8 e97f cfe6 f504 0de7 35e8 e912
00000090: 3a3a 30e3 4127 fcd8 b7c1 1ec3 0ced 1c38
000000a0: 28f4 df09 fe0d e82b 2a24 2edf beff 2e38
000000b0: bb13 3ae0 00eb 02bd ff2b 3ab9 1c48 b703
000000c0: 3f57 2fe6 fdb7 26f7 b647 f133 dbf7 5a2e
000000d0: 48ec 000a f7da acab c7e8 05f4 e4d1 221e
000000e0: 3539 5901 05a6 2102 9be7 faf6 e90b 3af4
000000f0: ff32 cc30 01cf 14c7 d47a 0f14 1907 7d0f
-42 61 22 8 9 11 -21 -23
26 -35 -29 2 12 12 -47 -36
6 10 33 16 11 -1 38 55
-83 19 -12 -43 10 -6 -59 -6
-8 36 1 17 12 -55 -9 59
29 0 -11 -17 1 -4 19 21
-5 9 2 57 31 -25 38 5
-31 31 26 12 2 127 80 -11
-72 27 -2 6 -11 51 30 -18
13 -17 -3 -20 -2 23 -49 -15
-61 -5 22 10 28 -13 7 -6
32 -18 -22 19 -86 -10 27 -3
-14 64 60 -84 -72 33 -14 -25
9 -9 14 -13 76 -53 -12 -85
6 53 -5 -18 82 -78 -16 69
92 4 -64 -42 -74 24 -18 28
96 -57 -8 -8 -23 127 -49 -26
-11 4 13 -25 53 -24 -23 18
58 58 48 -29 65 39 -4 -40
-73 -63 30 -61 12 -19 28 56
40 -12 -33 9 -2 13 -24 43
42 36 46 -33 -66 -1 46 56
-69 19 58 -32 0 -21 2 -67
-1 43 58 -71 28 72 -73 3
63 87 47 -26 -3 -73 38 -9
-74 71 -15 51 -37 -9 90 46
72 -20 0 10 -9 -38 -84 -85
-57 -24 5 -12 -28 -47 34 30
53 57 89 1 5 -90 33 2
-101 -25 -6 -10 -23 11 58 -12
-1 50 -52 48 1 -49 20 -57
-44 122 15 20 25 7 125 15

functional_1/conv2d_21/Conv2D i1 [96, 1, 1, 16]
00000000: df1e 56c2 44ed 9f9b 81ba 1191 d310 ee38
00000010: ed81 241d 0b3d def6 c188 020e 85de d148
00000020: 33e3 1207 ee37 3295 23e4 f7f9 81f8 01dc
00000030: d513 074b e57f d71a de28 0004 eb1e f8e1
00000040: 8176 1064 3c3d ddf2 893c 540c 14de 870e
00000050: 5101 0340 31e9 e3ce 1536 cce2 813f b12f
00000060: a63d afea 8116 dcb2 0ffd 1d06 17fc 4dce
00000070: f406 d71b dc19 08e5 f31f d8ed 1f7f f827
00000080: 0ebf 2edb ccff 1981 2406 0ae3 410d e9b0
00000090: 09fe def6 3222 6028 1b3c ff84 7f18 55ea
000000a0: deac 55fe 1e34 28c2 bc9a fb20 aede 81de
000000b0: fd08 0bcf 45d3 0d06 24f5 5081 32bc fe0c
000000c0: 137f ed82 07e8 8d1a bff6 79d2 f3bf cee6
000000d0: 35ae d2ab 1bea 2cf7 7fc9 d174 2138 6702
000000e0: a4e3 f31b ac48 a1c3 d6f8 7fb5 a807 ee0a
000000f0: d920 251b e514 e31e aef8 ed16 fe3d 8106
-33 30 86 -62 68 -19 -97 -101
-127 -70 17 -111 -45 16 -18 56
-19 -127 36 29 11 61 -34 -10
-63 -120 2 14 -123 -34 -47 72
51 -29 18 7 -18 55 50 -107
35 -28 -9 -7 -127 -8 1 -36
-43 19 7 75 -27 127 -41 26
-34 40 0 4 -21 30 -8 -31
-127 118 16 100 60 61 -35 -14
-119 60 84 12 20 -34 -121 14
81 1 3 64 49 -23 -29 -50
21 54 -52 -30 -127 63 -79 47
-90 61 -81 -22 -127 22 -36 -78
15 -3 29 6 23 -4 77 -50
-12 6 -41 27 -36 25 8 -27
-13 31 -40 -19 31 127 -8 39
14 -65 46 -37 -52 -1 25 -127
36 6 10 -29 65 13 -23 -80
9 -2 -34 -10 50 34 96 40
27 60 -1 -124 127 24 85 -22
-34 -84 85 -2 30 52 40 -62
-68 -102 -5 32 -82 -34 -127 -34
-3 8 11 -49 69 -45 13 6
36 -11 80 -127 50 -68 -2 12
19 127 -19 -126 7 -24 -115 26
-65 -10 121 -46 -13 -65 -50 -26
53 -82 -46 -85 27 -22 44 -9
127 -55 -47 116 33 56 103 2
-92 -29 -13 27 -84 72 -95 -61
-42 -8 127 -75 -88 7 -18 10
-39 32 37 27 -27 20 -29 30
-82 -8 -19 22 -2 61 -127 6

functional_1/conv2d_22/Conv2D i1 [16, 1, 1, 96]
00000000: 4202 dbf6 93ca c931 281e e120 1906 4a3f
00000010: 0ffe e321 1503 fc55 0f65 19ce ef1a 2acf
00000020: 2a38 ee1a da35 1ee6 180f 0742 eed5 1ae2
00000030: 7f3d 5aec e2dd d695 d8ac e3f7 0ed9 2ef1
00000040: d5dc 16a6 df49 125a cb19 2abf e2eb e60f
00000050: 1918 df10 432f fcdc f102 10ca 5b0f 4d99
00000060: 3229 200a c9ef 3dde df2a 65df c913 f600
00000070: 0322 0afe dbd4 11e6 3603 0a58 ae05 09c9
00000080: 0322 ee60 b91f ee2a f8f7 d728 f849 04c9
00000090: 145d efaf b21e f296 f003 10a7 e823 12e9
000000a0: c1f5 5c08 01e1 590f 25c3 f4d7 3910 b8bd
000000b0: 0f0f f6ce 83e0 dba5 d8fc 7fe1 270e f30f
000000c0: 0e02 3906 2a4f da0d 7fe6 d8f0 3847 a327
000000d0: 0a9b 37e0 20f5 f9ae 4317 2b12 0028 f61e
000000e0: d9d9 18c7 15b3 06e1 1a27 3cff f1b4 ba0d
000000f0: 3dc6 b427 ea28 c628 b611 4aec 540f 30ef
66 2 -37 -10 -109 -54 -55 49
40 30 -31 32 25 6 74 63
15 -2 -29 33 21 3 -4 85
15 101 25 -50 -17 26 42 -49
42 56 -18 26 -38 53 30 -26
24 15 7 66 -18 -43 26 -30
127 61 90 -20 -30 -35 -42 -107
-40 -84 -29 -9 14 -39 46 -15
-43 -36 22 -90 -33 73 18 90
-53 25 42 -65 -30 -21 -26 15
25 24 -33 16 67 47 -4 -36
-15 2 16 -54 91 15 77 -103
50 41 32 10 -55 -17 61 -34
-33 42 101 -33 -55 19 -10 0
3 34 10 -2 -37 -44 17 -26
54 3 10 88 -82 5 9 -55
3 34 -18 96 -71 31 -18 42
-8 -9 -41 40 -8 73 4 -55
20 93 -17 -81 -78 30 -14 -106
-16 3 16 -89 -24 35 18 -23
-63 -11 92 8 1 -31 89 15
37 -61 -12 -41 57 16 -72 -67
15 15 -10 -50 -125 -32 -37 -91
-40 -4 127 -31 39 14 -13 15
14 2 57 6 42 79 -38 13
127 -26 -40 -16 56 71 -93 39
10 -101 55 -32 32 -11 -7 -82
67 23 43 18 0 40 -10 30
-39 -39 24 -57 21 -77 6 -31
26 39 60 -1 -15 -76 -70 13
61 -58 -76 39 -22 40 -58 40
-74 17 74 -20 84 15 48 -17

functional_1/conv2d_23/Conv2D i1 [96, 1, 1, 16]
00000000: e8f9 d8c2 2d55 18f8 197f e5df d054 2df2
00000010: dc1f dd11 d9d8 7f1a 2d09 2fe9 5406 d10a
00000020: f581 0a31 2679 2fce 114e bcf2 e20a 26ff
00000030: c1e7 81a9 1eff e227 08c2 4988 7baa 30ec
00000040: 143e c5ee dd08 cb99 7413 0fd8 bdd6 7fca
00000050: b0b1 9821 2af8 0499 7f04 dc02 3ba9 2762
00000060: 65e2 0add 354b c781 f224 235d 2efd ff4b
00000070: 7f61 c4d6 996a 97dd 0546 f91c 7ff4 42c6
00000080: 0521 0258 f432 09e5 1852 7fc0 11bd aee4
00000090: 3cfd c830 ffe5 1b05 7f53 d5e5 2d16 01e0
000000a0: ce58 0cbe 3fe4 6be5 1eec 10cd 2f38 2e7f
000000b0: cdc3 b0c9 7f23 14c0 e8f6 2126 0841 cadf
000000c0: 086f 6b0a bd9e c81a 810b 414e 9617 395a
000000d0: 3441 7fc5 d529 c27d fbdd 4792 f6ab 8204
000000e0: caea c87f 0e60 3802 555e d2b2 0e1c 730b
000000f0: e2aa 267f 1553 e0f7 ff54 02f6 c141 4fea
-24 -7 -40 -62 45 85 24 -8
25 127 -27 -33 -48 84 45 -14
-36 31 -35 17 -39 -40 127 26
45 9 47 -23 84 6 -47 10
-11 -127 10 49 38 121 47 -50
17 78 -68 -14 -30 10 38 -1
-63 -25 -127 -87 30 -1 -30 39
8 -62 73 -120 123 -86 48 -20
20 62 -59 -18 -35 8 -53 -103
116 19 15 -40 -67 -42 127 -54
-80 -79 -104 33 42 -8 4 -103
127 4 -36 2 59 -87 39 98
101 -30 10 -35 53 75 -57 -127
-14 36 35 93 46 -3 -1 75
127 97 -60 -42 -103 106 -105 -35
5 70 -7 28 127 -12 66 -58
5 33 2 88 -12 50 9 -27
24 82 127 -64 17 -67 -82 -28
60 -3 -56 48 -1 -27 27 5
127 83 -43 -27 45 22 1 -32
-50 88 12 -66 63 -28 107 -27
30 -20 16 -51 47 56 46 127
-51 -61 -80 -55 127 35 20 -64
-24 -10 33 38 8 65 -54 -33
8 111 107 10 -67 -98 -56 26
-127 11 65 78 -106 23 57 90
52 65 127 -59 -43 41 -62 125
-5 -35 71 -110 -10 -85 -126 4
-54 -22 -56 127 14 96 56 2
85 94 -46 -78 14 28 115 11
-30 -86 38 127 21 83 -32 -9
-1 84 2 -10 -63 65 79 -22

functional_1/conv2d_24/Conv2D i1 [16, 1, 1, 96]
00000000: 5ce7 a94e 7f08 d2d4 e4e8 b458 dbe9 ef05
00000010: e31c b9e2 f019 2e1a 31c6 a9fc cb25 4653
00000020: 3e2f e4f3 dbec edc8 441d 0247 3a39 3940
00000030: 0ffa c306 3954 4ffd fafb f549 1efa d433
00000040: 1c21 ee18 50f0 c91c f1e0 c128 c6f7 5d41
00000050: 10e0 e500 1ec4 e831 1113 d0f0 ec26 124b
00000060: 020b 0ce7 24c3 daef 0743 48e0 0803 5307
00000070: ec25 2881 fcd4 0ec5 1419 a4e4 d84d 380a
00000080: ce34 cc82 eaee 38e8 1a9d e8e8 3921 14ed
00000090: ac16 1bdb 01c1 20df e111 4612 edda 3910
000000a0: fec8 2014 15f3 3284 a3f8 4d46 2520 d616
000000b0: 1b11 6430 dabc efec f009 f00f c9f0 f001
000000c0: b8f4 9100 d2ac 1011 1118 402b 3728 241f
000000d0: fc3a 479c f111 b629 661d d154 20ca d70d
000000e0: 3b08 7df9 d921 d436 a64b ef2f 0231 38e3
000000f0: 0ace e61e ba65 fdd4 bb08 e46c c2f7 dd19
92 -25 -87 78 127 8 -46 -44
-28 -24 -76 88 -37 -23 -17 5
-29 28 -71 -30 -16 25 46 26
49 -58 -87 -4 -53 37 70 83
62 47 -28 -13 -37 -20 -19 -56
68 29 2 71 58 57 57 64
15 -6 -61 6 57 84 79 -3
-6 -5 -11 73 30 -6 -44 51
28 33 -18 24 80 -16 -55 28
-15 -32 -63 40 -58 -9 93 65
16 -32 -27 0 30 -60 -24 49
17 19 -48 -16 -20 38 18 75
2 11 12 -25 36 -61 -38 -17
7 67 72 -32 8 3 83 7
-20 37 40 -127 -4 -44 14 -59
20 25 -92 -28 -40 77 56 10
-50 52 -52 -126 -22 -18 56 -24
26 -99 -24 -24 57 33 20 -19
-84 22 27 -37 1 -63 32 -33
-31 17 70 18 -19 -38 57 16
-2 -56 32 20 21 -13 50 -124
-93 -8 77 70 37 32 -42 22
27 17 100 48 -38 -68 -17 -20
-16 9 -16 15 -55 -16 -16 1
-72 -12 -111 0 -46 -84 16 17
17 24 64 43 55 40 36 31
-4 58 71 -100 -15 17 -74 41
102 29 -47 84 32 -54 -41 13
59 8 125 -7 -39 33 -44 54
-90 75 -17 47 2 49 56 -29
10 -50 -26 30 -70 101 -3 -44
-69 8 -28 108 -62 -9 -35 25

functional_1/conv2d_25/Conv2D i1 [96, 1, 1, 16]
00000000: 2c37 9d48 13dd d32d b7c9 0538 d0e1 fe7f
00000010: 5708 3581 3a6a 0e04 2043 a704 3bfc fcf2
00000020: 9844 f781 61fc ff93 b3b1 12b5 eb5f 1349
00000030: cc2a 357f 2755 f69f ffc1 8c7f d944 1571
00000040: 0914 81fc cf93 df10 1d12 db02 7825 3ad7
00000050: 4b23 efa3 fa01 4de6 7f15 05a4 54df 0615
00000060: 33ee 0eda 022e 04e9 81af fa2d d1b7 260c
00000070: 7f59 3efc 3c5a 9dd6 defc 2620 d8a8 12f7
00000080: 99e2 3ab7 3b35 f1c4 46db f89a 2f81 1126
00000090: f826 f43a 142e 8119 d9be fe05 3a17 a851
000000a0: fcd3 0c4c 3711 eb07 2c29 08c4 a520 f27f
000000b0: dcb4 bf00 17da 14c7 411a e595 b8c0 7f03
000000c0: 2d2c e0f3 d109 3539 8101 e722 231b 9809
000000d0: c51b 2b25 fa59 2327 2451 1b27 0d7f df4a
000000e0: 04ee c904 122f de2b efd5 23e7 81df 0b49
000000f0: a87f d6e5 ebb5 e1de 2102 d51b 49ec dcc3
44 55 -99 72 19 -35 -45 45
-73 -55 5 56 -48 -31 -2 127
87 8 53 -127 58 106 14 4
32 67 -89 4 59 -4 -4 -14
-104 68 -9 -127 97 -4 -1 -109
-77 -79 18 -75 -21 95 19 73
-52 42 53 127 39 85 -10 -97
-1 -63 -116 127 -39 68 21 113
9 20 -127 -4 -49 -109 -33 16
29 18 -37 2 120 37 58 -41
75 35 -17 -93 -6 1 77 -26
127 21 5 -92 84 -33 6 21
51 -18 14 -38 2 46 4 -23
-127 -81 -6 45 -47 -73 38 12
127 89 62 -4 60 90 -99 -42
-34 -4 38 32 -40 -88 18 -9
-103 -30 58 -73 59 53 -15 -60
70 -37 -8 -102 47 -127 17 38
-8 38 -12 58 20 46 -127 25
-39 -66 -2 5 58 23 -88 81
-4 -45 12 76 55 17 -21 7
44 41 8 -60 -91 32 -14 127
-36 -76 -65 0 23 -38 20 -57
65 26 -27 -107 -72 -64 127 3
45 44 -32 -13 -47 9 53 57
-127 1 -25 34 35 27 -104 9
-59 27 43 37 -6 89 35 39
36 81 27 39 13 127 -33 74
4 -18 -55 4 18 47 -34 43
-17 -43 35 -25 -127 -33 11 73
-88 127 -42 -27 -21 -75 -31 -34
33 2 -43 27 73 -20 -36 -61

functional_1/conv2d_26/Conv2D i1 [16, 1, 1, 96]
00000000: 2a2e c355 b0f4 d662 db31 0367 49c5 e5f5
00000010: 57a7 f933 6ef8 351b 9fdc dce9 fc02 07df
00000020: 97fa 6526 f3d8 2110 0f39 de81 1b32 bfa9
00000030: 0e53 d569 56ef 3d24 fcdc dfea c702 c713
00000040: b1fe 3711 270a 0e45 d6c2 66c0 b8f2 f509
00000050: 6c47 03da 0112 e356 0e75 27ce 0a4f efb1
00000060: 04c4 2b66 e2e4 ba50 2e1d f417 e3e8 eace
00000070: 00e2 5b5d 2834 17b1 35b9 f9a4 c155 0452
00000080: 38c6 ffad a242 2ee9 2de9 ef50 e7b2 f5d4
00000090: e9ea 397b 1610 75db 13fc 04e0 cd98 ee5b
000000a0: e3d9 333c 2c59 cedb d511 02b8 3fe7 433d
000000b0: a801 dd1f 36f6 f6ca 8116 47f9 cfda e9c7
000000c0: 48e8 34fe 20e3 1be8 cf33 2e0a 0d08 f132
000000d0: 3cd6 0cbd 4c13 ab22 e5f3 0800 03f0 f5c7
000000e0: 0afe 1004 fdd3 1b33 c5c5 0a41 c9cc 200b
000000f0: 780d 23e6 db88 f9f6 eb0e bf26 0f1a 41db
42 46 -61 85 -80 -12 -42 98
-37 49 3 103 73 -59 -27 -11
87 -89 -7 51 110 -8 53 27
-97 -36 -36 -23 -4 2 7 -33
-105 -6 101 38 -13 -40 33 16
15 57 -34 -127 27 50 -65 -87
14 83 -43 105 86 -17 61 36
-4 -36 -33 -22 -57 2 -57 19
-79 -2 55 17 39 10 14 69
-42 -62 102 -64 -72 -14 -11 9
108 71 3 -38 1 18 -29 86
14 117 39 -50 10 79 -17 -79
4 -60 43 102 -30 -28 -70 80
46 29 -12 23 -29 -24 -22 -50
0 -30 91 93 40 52 23 -79
53 -71 -7 -92 -63 85 4 82
56 -58 -1 -83 -94 66 46 -23
45 -23 -17 80 -25 -78 -11 -44
-23 -22 57 123 22 16 117 -37
19 -4 4 -32 -51 -104 -18 91
-29 -39 51 60 44 89 -50 -37
-43 17 2 -72 63 -25 67 61
-88 1 -35 31 54 -10 -10 -54
-127 22 71 -7 -49 -38 -23 -57
72 -24 52 -2 32 -29 27 -24
-49 51 46 10 13 8 -15 50
60 -42 12 -67 76 19 -85 34
-27 -13 8 0 3 -16 -11 -57
10 -2 16 4 -3 -45 27 51
-59 -59 10 65 -55 -52 32 11
120 13 35 -26 -37 -120 -7 -10
-21 14 -65 38 15 26 65 -37

functional_1/conv2d_27/Conv2D i1 [96, 1, 1, 16]
00000000: 5c2f e425 ac60 e09d af34 efe9 7fe5 2d1a
00000010: ae99 1d99 7feb f8ad c831 1075 8efe 52d7
00000020: d2f6 fef5 06e9 f5ed e5b6 0481 6d4c eb39
00000030: eb7b 2e0c 0efd 17cd ee47 fd01 810a 0f01
00000040: 18dd 3517 40fb fbd2 81dd fdff abfc 0cfe
00000050: f016 44e3 fd47 73ef e9e7 0610 45f3 7ff6
00000060: 13c7 40e5 270f 21c6 dfa6 b27f d5cf 472b
00000070: 21b0 e962 0e65 0ce3 9a27 dc7f f0f3 01bb
00000080: 1306 eb07 1bf4 81dd 1534 1629 a21b e42b
00000090: 08c8 f849 35f9 b081 7842 6bb6 0404 a23c
000000a0: f72f d011 93e4 b51c d07f 0c83 2327 86ec
000000b0: 39c0 cd7f f833 02fa 1633 07df 5a01 31fd
000000c0: 8112 07e0 5727 18b4 0dfa 10cf 4066 0f10
000000d0: 6dce 2981 a910 273b 0466 15d0 ab1c 0349
000000e0: f7ea 26ac f024 8f20 bdac 30a2 b981 f80d
000000f0: 81d8 cd14 ff32 dbc0 e634 12af 1bf1 33e9
92 47 -28 37 -84 96 -32 -99
-81 52 -17 -23 127 -27 45 26
-82 -103 29 -103 127 -21 -8 -83
-56 49 16 117 -114 -2 82 -41
-46 -10 -2 -11 6 -23 -11 -19
-27 -74 4 -127 109 76 -21 57
-21 123 46 12 14 -3 23 -51
-18 71 -3 1 -127 10 15 1
24 -35 53 23 64 -5 -5 -46
-127 -35 -3 -1 -85 -4 12 -2
-16 22 68 -29 -3 71 115 -17
-23 -25 6 16 69 -13 127 -10
19 -57 64 -27 39 15 33 -58
-33 -90 -78 127 -43 -49 71 43
33 -80 -23 98 14 101 12 -29
-102 39 -36 127 -16 -13 1 -69
19 6 -21 7 27 -12 -127 -35
21 52 22 41 -94 27 -28 43
8 -56 -8 73 53 -7 -80 -127
120 66 107 -74 4 4 -94 60
-9 47 -48 17 -109 -28 -75 28
-48 127 12 -125 35 39 -122 -20
57 -64 -51 127 -8 51 2 -6
22 51 7 -33 90 1 49 -3
-127 18 7 -32 87 39 24 -76
13 -6 16 -49 64 102 15 16
109 -50 41 -127 -87 16 39 59
4 102 21 -48 -85 28 3 73
-9 -22 38 -84 -16 36 -113 32
-67 -84 48 -94 -71 -127 -8 13
-127 -40 -51 20 -1 50 -37 -64
-26 52 18 -81 27 -15 51 -23

functional_1/conv2d_28/Conv2D i1 [24, 1, 1, 96]
00000000: 10fd d020 eb21 3330 8125 ab1b 62a7 e4f6
00000010: d5df 06ec 21f7 fcf0 fc33 c3fc 1c9a 12fa
00000020: d59b 000c 05ea 070c d81b 0bfa d8f5 f6da
00000030: f33d c5f7 e143 473c d34d d5c4 e52d 40ce
00000040: 392a 20d2 5212 fb4a 3a15 ee21 1d19 3812
00000050: eb3b bff6 b402 fd47 f160 ba25 1c10 f2dd
00000060: d4a8 3b24 3009 08e6 f9f7 dcb8 0d1d e102
00000070: 1f09 d9e3 eacd 33b1 f1d1 e26a 63d8 a3c8
00000080: e83c 2b04 c0ac c87f a8b6 c120 b344 4cf5
00000090: b245 209e 4c0c 09fc c163 84d4 c7dd ce26
000000a0: c354 20fe 0cec fded f0e5 13ec edf7 c419
000000b0: 30e6 baea 00d5 2cc3 da1f d909 ef59 2be4
000000c0: e4c7 2f3a e105 c032 cefb 3d1c 2b0b 1cfa
000000d0: 14f2 f6b4 f5cb f72e 35e2 e409 ea03 2612
000000e0: e4e0 2200 0bef 0c11 1d00 e50a 4dfb faf9
000000f0: fb14 daef 2e0a b92f 3307 391d 04fb c106
16 -3 -48 32 -21 33 51 48
-127 37 -85 27 98 -89 -28 -10
-43 -33 6 -20 33 -9 -4 -16
-4 51 -61 -4 28 -102 18 -6
-43 -101 0 12 5 -22 7 12
-40 27 11 -6 -40 -11 -10 -38
-13 61 -59 -9 -31 67 71 60
-45 77 -43 -60 -27 45 64 -50
57 42 32 -46 82 18 -5 74
58 21 -18 33 29 25 56 18
-21 59 -65 -10 -76 2 -3 71
-15 96 -70 37 28 16 -14 -35
-44 -88 59 36 48 9 8 -26
-7 -9 -36 -72 13 29 -31 2
31 9 -39 -29 -22 -51 51 -79
-15 -47 -30 106 99 -40 -93 -56
-24 60 43 4 -64 -84 -56 127
-88 -74 -63 32 -77 68 76 -11
-78 69 32 -98 76 12 9 -4
-63 99 -124 -44 -57 -35 -50 38
-61 84 32 -2 12 -20 -3 -19
-16 -27 19 -20 -19 -9 -60 25
48 -26 -70 -22 0 -43 44 -61
-38 31 -39 9 -17 89 43 -28
-28 -57 47 58 -31 5 -64 50
-50 -5 61 28 43 11 28 -6
20 -14 -10 -76 -11 -53 -9 46
53 -30 -28 9 -22 3 38 18
-28 -32 34 0 11 -17 12 17
29 0 -27 10 77 -5 -6 -7
-5 20 -38 -17 46 10 -71 47
51 7 57 29 4 -5 -63 6

functional_1/conv2d_29/Conv2D i1 [136, 1, 1, 24]
00000000: e4d1 0e0b 8f77 ed81 68a8 004d ddfb eddb
00000010: 22e3 2bd0 72f3 0bd7 00f2 d7d0 b325 25f4
00000020: 0d00 382d ff9c 23ce 1c2a db7f 0ded 1821
00000030: d424 e604 fa21 4948 bce1 d9fc 2099 dae7
00000040: b766 f27f 0b72 20f2 321a fddd 448e d0f8
00000050: 7b70 baf1 1e31 7f06 216d f4f7 d815 b4c1
00000060: fbe3 489d 5c11 bcbf 08e5 9324 193e 7a1b
00000070: 953b 81e2 23ea 831a fefd 8110 0511 04b6
00000080: be22 0070 f0c8 f102 62a8 02a4 fdbe e728
00000090: f0f1 1c27 e300 1a00 01e7 ce3c f81a a9d6
000000a0: 2c81 938d 181f e5d4 21fe f544 ddf9 1b00
000000b0: 8123 9df7 ba1d c2ca 52ea 1dce 17ca 200b
000000c0: 0ffb 2175 4760 8f16 81d3 0b9a e53e 34fb
000000d0: b615 040c 0e2d 700e 0f00 a601 f9c7 2123
000000e0: 3325 3716 813c a9ae fa3c f4bf 16ff 44f2
000000f0: 2b0c 4dad 9fad ef4b 221c c3e3 4ddf ff44
-28 -47 14 11 -113 119 -19 -127
104 -88 0 77 -35 -5 -19 -37
34 -29 43 -48 114 -13 11 -41
0 -14 -41 -48 -77 37 37 -12
13 0 56 45 -1 -100 35 -50
28 42 -37 127 13 -19 24 33
-44 36 -26 4 -6 33 73 72
-68 -31 -39 -4 32 -103 -38 -25
-73 102 -14 127 11 114 32 -14
50 26 -3 -35 68 -114 -48 -8
123 112 -70 -15 30 49 127 6
33 109 -12 -9 -40 21 -76 -63
-5 -29 72 -99 92 17 -68 -65
8 -27 -109 36 25 62 122 27
-107 59 -127 -30 35 -22 -125 26
-2 -3 -127 16 5 17 4 -74
-66 34 0 112 -16 -56 -15 2
98 -88 2 -92 -3 -66 -25 40
-16 -15 28 39 -29 0 26 0
1 -25 -50 60 -8 26 -87 -42
44 -127 -109 -115 24 31 -27 -44
33 -2 -11 68 -35 -7 27 0
-127 35 -99 -9 -70 29 -62 -54
82 -22 29 -50 23 -54 32 11
15 -5 33 117 71 96 -113 22
-127 -45 11 -102 -27 62 52 -5
-74 21 4 12 14 45 112 14
15 0 -90 1 -7 -57 33 35
51 37 55 22 -127 60 -87 -82
-6 60 -12 -65 22 -1 68 -14
43 12 77 -83 -97 -83 -17 75
34 28 -61 -29 77 -33 -1 68

functional_1/conv2d_30/Conv2D i1 [24, 1, 1, 136]
00000000: fdba 08ff b392 62be 1bd7 c408 f5de 39f3
00000010: dec4 5133 dbcc 0522 dad2 f335 eec6 50fd
00000020: efef 12f6 2907 0017 4400 2fb7 3729 5616
00000030: b70c 1125 14f9 e3c8 ce05 cb09 02cf b330
00000040: 3e1c 3ffe 3ea9 2dfd d034 13fe 2add 0bd8
00000050: 1f0d 1f26 320d 38c2 e7c9 df5d f8f2 222c
00000060: 04e8 0b1f 19e7 3af8 13c6 23ab 47ff 1ad5
00000070: 34e8 1312 1a3b 137f e724 b9db 45df 38e8
00000080: a90e 031c 3215 1bf0 2cba ee0b d2d4 c6df
00000090: 1646 c236 69c9 0ce4 dc12 53a7 3c4b 032a
000000a0: f5d1 e328 17c4 c8b4 0308 1bf8 efc6 c2fc
000000b0: e22d da1c 30b4 a4c9 23fb 36d4 a204 fa22
000000c0: edcb e7fd e826 2016 d0af e00a ccef eaa1
000000d0: 337f eaed e75c 17ee ecfa 180d f9e0 c5ee
000000e0: f7fb c1ba 100c a4e5 c7d8 fb18 18ce e0ba
000000f0: 35cf 05f2 e68b 0f20 92ff d60d 03c1 15c5
-3 -70 8 -1 -77 -110 98 -66
27 -41 -60 8 -11 -34 57 -13
-34 -60 81 51 -37 -52 5 34
-38 -46 -13 53 -18 -58 80 -3
-17 -17 18 -10 41 7 0 23
68 0 47 -73 55 41 86 22
-73 12 17 37 20 -7 -29 -56
-50 5 -53 9 2 -49 -77 48
62 28 63 -2 62 -87 45 -3
-48 52 19 -2 42 -35 11 -40
31 13 31 38 50 13 56 -62
-25 -55 -33 93 -8 -14 34 44
4 -24 11 31 25 -25 58 -8
19 -58 35 -85 71 -1 26 -43
52 -24 19 18 26 59 19 127
-25 36 -71 -37 69 -33 56 -24
-87 14 3 28 50 21 27 -16
44 -70 -18 11 -46 -44 -58 -33
22 70 -62 54 105 -55 12 -28
-36 18 83 -89 60 75 3 42
-11 -47 -29 40 23 -60 -56 -76
3 8 27 -8 -17 -58 -62 -4
-30 45 -38 28 48 -76 -92 -55
35 -5 54 -44 -94 4 -6 34
-19 -53 -25 -3 -24 38 32 22
-48 -81 -32 10 -52 -17 -22 -95
51 127 -22 -19 -25 92 23 -18
-20 -6 24 13 -7 -32 -59 -18
-9 -5 -63 -70 16 12 -92 -27
-57 -40 -5 24 24 -50 -32 -70
53 -49 5 -14 -26 -117 15 32
-110 -1 -42 13 3 -63 21 -59

functional_1/conv2d_31/Conv2D i1 [136, 1, 1, 24]
00000000: 06f6 010b f107 1003 6e01 4ec3 fdfc 0a2e
00000010: 81d4 f2d4 fd1b e012 c9fb bae2 1503 e0da
00000020: 288a 3134 cac8 1cf8 552a 3481 fb5c fee9
00000030: 81d7 3841 1340 1cc1 a216 b9ce ee18 b4b7
00000040: 201d bed2 0800 f5ff 752d ec83 0917 e7e6
00000050: 2619 fdf0 2311 b226 42c4 0881 2ed1 fefa
00000060: ed03 1339 f0c3 2046 29db 5ae4 8136 012e
00000070: e1f4 0747 1708 10e9 1fe2 4562 0bb1 48ef
00000080: d12c 3cf4 e756 23b0 9bae 8178 c0c6 1200
00000090: 93fb d04d 810c a218 dbbb c62e 0afa ca26
000000a0: 06f1 b64d 4e31 0fd8 5783 ddba ebc8 ca6d
000000b0: 1cc8 c103 1d53 0cdc 7ff8 c026 a4b5 fac6
000000c0: 8f81 2ab4 e4e5 351b de04 14d4 f7ed 0cc7
000000d0: 8325 1d5a 31d8 fe14 f162 0c7f 0bac 1702
000000e0: bd03 e919 e04a b52f f1e8 6085 5494 f320
000000f0: 01fa f1fc 8131 d1f3 9207 28ed 47be 8c20
6 -10 1 11 -15 7 16 3
110 1 78 -61 -3 -4 10 46
-127 -44 -14 -44 -3 27 -32 18
-55 -5 -70 -30 21 3 -32 -38
40 -118 49 52 -54 -56 28 -8
85 42 52 -127 -5 92 -2 -23
-127 -41 56 65 19 64 28 -63
-94 22 -71 -50 -18 24 -76 -73
32 29 -66 -46 8 0 -11 -1
117 45 -20 -125 9 23 -25 -26
38 25 -3 -16 35 17 -78 38
66 -60 8 -127 46 -47 -2 -6
-19 3 19 57 -16 -61 32 70
41 -37 90 -28 -127 54 1 46
-31 -12 7 71 23 8 16 -23
31 -30 69 98 11 -79 72 -17
-47 44 60 -12 -25 86 35 -80
-101 -82 -127 120 -64 -58 18 0
-109 -5 -48 77 -127 12 -94 24
-37 -69 -58 46 10 -6 -54 38
6 -15 -74 77 78 49 15 -40
87 -125 -35 -70 -21 -56 -54 109
28 -56 -63 3 29 83 12 -36
127 -8 -64 38 -92 -75 -6 -58
-113 -127 42 -76 -28 -27 53 27
-34 4 20 -44 -9 -19 12 -57
-125 37 29 90 49 -40 -2 20
-15 98 12 127 11 -84 23 2
-67 3 -23 25 -32 74 -75 47
-15 -24 96 -123 84 -108 -13 32
1 -6 -15 -4 -127 49 -47 -13
-110 7 40 -19 71 -66 -116 32

functional_1/conv2d_32/Conv2D i1 [24, 1, 1, 136]
00000000: 0620 3bb9 081c f237 c4e5 c33e 2de9 0fe0
00000010: 0121 a9bf 1e1d 303c 06de 0910 4105 0ddc
00000020: 6d1f f605 3e14 0bfe ede3 0336 ae12 ddf9
00000030: b759 fa05 f908 51f8 3000 0dcb f9b2 120d
00000040: 000b 0c45 1de0 51ec e730 0813 f839 e1c2
00000050: f512 d03a bd1b 2012 4de5 29df 3708 5100
00000060: c6d5 ecf7 4bf2 c151 0018 3acc e3ac b6d6
00000070: c29a 81cc 0141 79ec 39c9 ef06 dbc3 bcb2
00000080: b719 f8b0 e002 14f0 120a 1f21 c8ed 04f0
00000090: b09a f41b d3b1 fce1 311b dcef 0304 11bf
000000a0: 163b 0103 d3f3 21f1 e73c cb2d cc41 dbf6
000000b0: 33c2 2e1d 4000 2c21 10b2 d3ff 22da e91a
000000c0: 1c13 df9e 95d7 a7a4 2a5c fcc8 fff9 ecf7
000000d0: e1bd 34fe 3bd4 0200 130b 2320 eff4 31c9
000000e0: 44e7 37e6 140c 01ce fcfa d732 2518 3ad8
000000f0: 3e17 cc26 ce0d 0b23 f5e5 1447 044c f57f
6 32 59 -71 8 28 -14 55
-60 -27 -61 62 45 -23 15 -32
1 33 -87 -65 30 29 48 60
6 -34 9 16 65 5 13 -36
109 31 -10 5 62 20 11 -2
-19 -29 3 54 -82 18 -35 -7
-73 89 -6 5 -7 8 81 -8
48 0 13 -53 -7 -78 18 13
0 11 12 69 29 -32 81 -20
-25 48 8 19 -8 57 -31 -62
-11 18 -48 58 -67 27 32 18
77 -27 41 -33 55 8 81 0
-58 -43 -20 -9 75 -14 -63 81
0 24 58 -52 -29 -84 -74 -42
-62 -102 -127 -52 1 65 121 -20
57 -55 -17 6 -37 -61 -68 -78
-73 25 -8 -80 -32 2 20 -16
18 10 31 33 -56 -19 4 -16
-80 -102 -12 27 -45 -79 -4 -31
49 27 -36 -17 3 4 17 -65
22 59 1 3 -45 -13 33 -15
-25 60 -53 45 -52 65 -37 -10
51 -62 46 29 64 0 44 33
16 -78 -45 -1 34 -38 -23 26
28 19 -33 -98 -107 -41 -89 -92
42 92 -4 -56 -1 -7 -20 -9
-31 -67 52 -2 59 -44 2 0
19 11 35 32 -17 -12 49 -55
68 -25 55 -26 20 12 1 -50
-4 -6 -41 50 37 24 58 -40
62 23 -52 38 -50 13 11 35
-11 -27 20 71 4 76 -11 127

functional_1/conv2d_33/Conv2D i1 [136, 1, 1, 24]
00000000: f714 cad2 ea32 e618 11e1 2361 a5eb 16d8
00000010: 7f46 3e47 0553 f04b d7fb 85ed ebb3 f7f0
00000020: 1dd5 e910 bc7f 968e 239b e2d8 eafd c90b
00000030: 32a4 32e4 0c10 1a19 b82c 06ef d681 ef0c
00000040: 0722 e215 3108 d2f4 0a3b df13 fce3 c81e
00000050: 1d3e a405 3814 261c 8139 05cb b7fc cf31
00000060: 1c22 e0fc 03f5 f35d fc19 9c28 7fe9 7216
00000070: 1a0e 12c1 05cf 072f de9a b376 aa2a e781
00000080: 0659 1837 ffb6 19fe a1bd 6206 0bbe d0e7
00000090: 16d0 14e7 2617 0cfa eb4f 498d 22f3 21e7
000000a0: 8144 271a 02e4 67e8 2217 2ff3 cbf9 1220
000000b0: 020e f930 e332 daee 7fd0 2117 22ec bb0f
000000c0: 001f 628a dac3 fa2a d465 5ef8 0605 26de
000000d0: 3023 027f 080b e503 0805 ecfa 1421 20d0
000000e0: 084b a8ed f81e 03ac 3a2e d4e1 7f15 7a19
000000f0: 1de1 1ee3 272c 9ce1 f14c 81c4 3ffa c825
-9 20 -54 -46 -22 50 -26 24
17 -31 35 97 -91 -21 22 -40
127 70 62 71 5 83 -16 75
-41 -5 -123 -19 -21 -77 -9 -16
29 -43 -23 16 -68 127 -106 -114
35 -101 -30 -40 -22 -3 -55 11
50 -92 50 -28 12 16 26 25
-72 44 6 -17 -42 -127 -17 12
7 34 -30 21 49 8 -46 -12
10 59 -33 19 -4 -29 -56 30
29 62 -92 5 56 20 38 28
-127 57 5 -53 -73 -4 -49 49
28 34 -32 -4 3 -11 -13 93
-4 25 -100 40 127 -23 114 22
26 14 18 -63 5 -49 7 47
-34 -102 -77 118 -86 42 -25 -127
6 89 24 55 -1 -74 25 -2
-95 -67 98 6 11 -66 -48 -25
22 -48 20 -25 38 23 12 -6
-21 79 73 -115 34 -13 33 -25
-127 68 39 26 2 -28 103 -24
34 23 47 -13 -53 -7 18 32
2 14 -7 48 -29 50 -38 -18
127 -48 33 23 34 -20 -69 15
0 31 98 -118 -38 -61 -6 42
-44 101 94 -8 6 5 38 -34
48 35 2 127 8 11 -27 3
8 5 -20 -6 20 33 32 -48
8 75 -88 -19 -8 30 3 -84
58 46 -44 -31 127 21 122 25
29 -31 30 -29 39 44 -100 -31
-15 76 -127 -60 63 -6 -56 37
